models/trained_models/Autoencoder/model.pt (torch_old, 744342 bytes, 10 tensors)

weight f4 [128, 385]
000000 6a f5 09 3d cf 3c 9c bb c2 06 a7 3c 48 69 6c bc
       0.03368131 -0.004767991 0.020388965 -0.014429398
000010 1c a9 20 bc 38 b6 1f b7 2b f6 6d 3b db 51 b7 3b
       -0.009805944 -9.519565e-06 0.0036310058 0.0055944747
000020 e4 55 2f bb 05 da 48 3d e5 4b 0b 3c 99 03 10 bc
       -0.0026754076 0.049036045 0.008501981 -0.00878992
000030 82 59 94 3c 31 da 85 3c 42 74 92 bc 41 91 a1 3c
       0.018109087 0.016339393 -0.017877702 0.019722583
000040 cb cb 92 bb 8c 59 07 bc 38 5a 5c 3a 2f e9 ce ba
       -0.0044798604 -0.008261096 0.00084057776 -0.0015786047
000050 0d 05 e8 3c f8 6d bf 3b 96 0e 5b 3d c4 29 80 3b
       0.02832272 0.0058419667 0.053480707 0.003911229
000060 3f c7 38 bc d9 bc cd 3b e5 43 88 3c 5c 73 c1 3c
       -0.011277973 0.006278616 0.016633937 0.023614578
000070 0c 0c 60 3c 7c 70 27 3c ed a2 01 3d 49 29 12 3b
       0.013674747 0.010219689 0.03164952 0.002230244
000080 d9 9b bd bb bd 6a 5f 3b ce 38 8c 3c dc da a2 bb
       -0.0057864008 0.003409072 0.01711693 -0.0049699377
000090 4b 3d e4 3b 60 43 96 bc 59 0d e4 bb e1 07 8e bc
       0.0069653145 -0.018342674 -0.006959599 -0.017337741
0000a0 79 e2 4d bc c4 be 24 3c 62 cd 05 bc 29 aa a0 bc
       -0.012566202 0.010055248 -0.008166643 -0.019612389
0000b0 17 ab 76 bc c7 ca 24 3c a8 88 ea bc 98 73 12 bd
       -0.015055439 0.0100581115 -0.028629616 -0.03575477
0000c0 29 35 8f bc 23 a6 23 bc 0d aa 37 3c 8b 1e 4b bc
       -0.017481403 -0.009988341 0.011209977 -0.012397419
0000d0 a5 bb 69 3c 8a 24 6b 3a 1d 75 08 bb 25 06 02 bd
       0.014265929 0.00089699833 -0.0020821758 -0.03174414
0000e0 6d bf 0b 3b 2e 2d 2d 3c 95 d5 f9 3b bd 02 80 bc
       0.0021323815 0.010569854 0.007624338 -0.015626306
0000f0 66 51 b5 bc b4 dc 98 bb 66 c4 5a 3c 3a 2a 75 3c
       -0.02213354 -0.0046649817 0.013352489 0.014963681
000100 3e 57 92 ba 55 ce 40 3d 73 60 f8 b9 bb 3d 53 bb
       -0.0011164916 0.047071774 -0.00047374106 -0.003223284
000110 21 03 88 bc 7d 19 e6 bb e4 fe 0c bb 2e d1 35 3b
       -0.016603054 -0.0070220814 -0.0021514231 0.002774309
000120 ad 63 61 bc 46 42 22 bc a5 96 95 bc 03 d2 0d 3d
       -0.013756675 -0.009903496 -0.01826031 0.03462411
000130 bf 8c cf 3c a4 9b 00 bd f0 bf 9e bc 76 6b df bc
       0.025335668 -0.03139843 -0.019378632 -0.027272921
000140 d0 cc fe 3b a3 33 71 bc 84 c2 31 3c f8 be d1 3c
       0.0077758804 -0.014721784 0.010849599 0.025603756
000150 98 82 56 bc 7b 5b 59 bc 54 2b fd 3c 47 82 96 bb
       -0.013092659 -0.01326644 0.03090445 -0.004593167
000160 ec 91 80 3c a0 36 5d bd 0f fa 9d bc 67 f6 1b bc
       0.015694581 -0.054007173 -0.019284276 -0.009519196
000170 9d d8 83 3c 06 77 79 3b 70 17 75 bc 56 c4 02 bd
       0.0160945 0.0038065328 -0.014959201 -0.03192552
000180 f6 16 96 3a 0e f0 cf 3c c3 6f 8f bc 4d d8 23 ba
       0.0011450935 0.025383022 -0.017509347 -0.0006250188
000190 4e 50 71 bb ec 13 17 3b b9 c5 66 bd 70 bd 01 bd
       -0.0036821547 0.0023052646 -0.056340907 -0.031674802
0001a0 13 ec 2e bc 9c d7 42 bc d6 9b 36 3b df 5f 78 bc
       -0.010676402 -0.011892226 0.0027863882 -0.015159576
0001b0 b8 f6 36 bc 35 a3 63 3c 73 50 ab 3c 5f 40 3e 3d
       -0.011167221 0.013893892 0.020912385 0.046448108
0001c0 7c ce f0 bc 09 1b 64 ba 6d e5 e8 3c 58 1c 5d bd
       -0.029395334 -0.00087015383 0.028429711 -0.05398211
0001d0 d4 ac 53 3b 92 59 ff 3c 90 a0 c9 bb 17 17 80 bc
       0.0032299059 0.03117064 -0.0061531737 -0.01563601
0001e0 77 ac 44 3c 3b 81 2b 3c 25 2d df 3a e1 2b 31 b9
       0.012004009 0.010467823 0.0017027004 -0.00016896382
0001f0 c9 51 d6 ba a9 61 b4 bc 4b 1a 13 3c ae 3e 91 bc
       -0.0016351278 -0.022019224 0.008978437 -0.017730083
000200 dc 32 e3 bb a6 b4 be 3c 96 1e 8d 3c 66 10 c4 bc
       -0.006933553 0.0232795 0.017226499 -0.0239336
000210 af 35 1c bc b6 81 80 bc 62 41 4a 3c 02 33 fb 3c
       -0.009534284 -0.015686851 0.01234469 0.03066397
000220 69 40 b8 bb a7 06 f1 bc df 7e 43 bc 25 53 5d bc
       -0.0056229127 -0.029422117 -0.011932104 -0.013508593
000230 fe 88 a8 bb 29 83 47 3c 84 d6 07 3d ed f1 91 bc
       -0.005143284 0.012177267 0.033163562 -0.017815555
000240 50 2d fc ba ae d1 b4 3c 58 ec 12 bb 22 3f ee 3b
       -0.0019239578 0.02207264 -0.0022418704 0.0072707096
000250 70 84 7a 3c 2f bf fe 3c 6c 6a d4 bc c7 14 51 bc
       0.015290365 0.031097023 -0.025929652 -0.012761301
000260 df 2a ef ba d9 b3 c8 bc 00 c5 90 bc ec c1 62 3c
       -0.001824703 -0.02449982 -0.017672062 0.01384018
000270 57 c5 70 bc 3f 39 8e bc d2 a4 f9 bc 6b f2 32 bc
       -0.014695487 -0.017361281 -0.0304741 -0.010922055
000280 20 12 f8 3c 0f ac 9b bc 03 cb d1 bc d0 b4 92 bb
       0.03028208 -0.019002942 -0.025609499 -0.004477121
000290 47 78 36 bd 3a 84 9f 3b 85 72 c6 3b ca 03 8e 3c
       -0.0445483 0.0048680576 0.0060561323 0.017335791
0002a0 f5 8d 46 3b f9 85 b1 3c 6c 7f fb bc 03 aa b7 bb
       0.0030297015 0.021670328 -0.030700408 -0.005604984
0002b0 b8 33 f2 bb 41 f1 20 bb 39 aa 70 ba c5 e7 97 3c
       -0.0073914193 -0.002455786 -0.00091806386 0.018543134
0002c0 5c ce cb bb c4 54 d9 bc a0 84 3b 3d 7e 7d cc bb
       -0.0062196683 -0.026529677 0.045780778 -0.006240546
0002d0 91 ec ab 3c 5b b3 d6 bc bb 8e ef 3c f0 03 ce 3c
       0.020986827 -0.02620857 0.029242864 0.025148362
0002e0 e0 7f 85 3c a6 62 4d 3c ff c0 78 3c ae 5f 61 3b
       0.016296327 0.012535727 0.015182733 0.0034389305
0002f0 d4 a8 8e 3b f4 8f da bc c5 4e 15 3b 53 db 71 3b
       0.004353622 -0.02667997 0.0022782546 0.003690441
000300 a1 92 4e bc fd 41 9c bc 1a 9e 62 3c ec bd 1c bb
       -0.012608201 -0.019074434 0.01383164 -0.0023916913
000310 b5 e7 a9 bc 8c d1 ff bc af 6a a2 bc 6f 3c a8 3c
       -0.02074037 -0.03122785 -0.019826261 0.02053663
000320 83 65 43 bb 12 ff 7c b9 06 d7 0d bc d5 48 82 3c
       -0.0029815144 -0.00024127614 -0.008657223 0.01590387
000330 4d f9 c8 38 b7 28 fc 3c 42 42 98 3c e6 28 91 3c
       9.583179e-05 0.030781133 0.018586282 0.017719697
000340 e7 66 12 bd a0 ea 48 3c c0 aa ea 3c 4a 7e af bc
       -0.035742667 0.01226297 0.028645873 -0.021422524
000350 85 8d b0 bb 03 7e e3 3c 23 15 2c bc 8d bf 06 3d
       -0.005387964 0.027770048 -0.010503086 0.03289752
000360 4c 36 38 3d 3e 6a ea 3a 00 e5 47 ba 8b e1 0d 3c
       0.044973657 0.0017884446 -0.0007625371 0.008659731
000370 b5 58 c6 3d f0 fa 2c 3b 0b cc 82 bc 6c db ca 3c
       0.09684888 0.0026394688 -0.015966436 0.024762832
000380 d0 dd 67 3c d3 93 d3 3c af 71 06 bd 84 65 0f 3d
       0.014152005 0.025827324 -0.03282326 0.035008922
000390 aa 18 9b bc d5 0d f1 bc ff 10 27 3d d5 96 18 3d
       -0.01893266 -0.029425541 0.040787693 0.03725322
0003a0 f4 c6 3d bd f1 44 9c 3b 8f 4e 9b bc 23 7d 61 bc
       -0.046332315 0.0047689606 -0.018958358 -0.013762745
0003b0 28 f4 45 ba 0c 60 77 bc 1c 3e eb 3c 1e 1e e3 bc
       -0.0007551336 -0.015098583 0.02871614 -0.027724322
0003c0 8f a0 83 3c 4b a2 ff b9 c4 5b 08 3d 49 9c 84 3d
       0.016067771 -0.00048758308 0.03329064 0.064751215
0003d0 bc 1f a0 bc ae 82 4c 3c 85 bb 03 3d 55 95 50 3b
       -0.019546382 0.012482328 0.032161254 0.003182729
0003e0 9e 48 a2 bb 40 ae ca 36 a0 a3 07 3c a4 3c 43 3c
       -0.0049525043 6.0403545e-06 0.008278757 0.011916313
0003f0 52 34 c1 bc ce 9c ad 3c 9d 25 5b bc bd 88 be bc
       -0.023584519 0.021192934 -0.013375667 -0.023258561

bias f4 [128]
000000 8a 5a dd bd 2c e6 1d 3d e3 70 5e 3c c7 d8 92 3c
       -0.108082846 0.038549587 0.013576719 0.017925633
000010 0e f8 f9 3d e5 ce 4a 3e 36 44 49 3e 28 d8 ae bd
       0.12205516 0.19805487 0.19654927 -0.08537322
000020 1e 34 a5 3e ad 46 84 3d 40 f9 a4 3c 4b aa e2 bd
       0.32266325 0.06458793 0.020138383 -0.11067637
000030 56 21 47 3d bd 24 7b 3d 8a 6f 86 3e 78 39 01 3e
       0.048615776 0.061314333 0.26256973 0.12619579
000040 23 5a 4a bd d8 46 21 bb d8 a0 4b bd 68 6d e4 3c
       -0.049402367 -0.0024608877 -0.04971394 0.0278842
000050 53 41 0e 3d c9 cc 86 3e 46 1d a0 3e c5 f5 1f 3d
       0.034730267 0.26328114 0.31272334 0.039052743
000060 ea 33 af 3e 31 12 bb bd 3e 25 ab 3e 4b 17 35 3e
       0.34219295 -0.09134329 0.3342685 0.17684667
000070 d6 4a 1d 3e fe c3 ba bc 24 a2 fe 3c da c6 d7 3d
       0.15360579 -0.022798534 0.031083174 0.10535975
000080 6e 59 3f 3d f3 be 8b 3e fa 23 5f 3e 30 ad f9 3d
       0.046716146 0.2729412 0.21791068 0.12191236
000090 52 9d 06 3d 42 27 29 bd 5f a4 e1 3d e6 77 60 3e
       0.032864876 -0.041297205 0.110176794 0.21920738
0000a0 ac bc dc 3d 19 97 51 3e 1f bd 65 3e f3 b8 ef 3c
       0.10778174 0.20467795 0.22435425 0.029262995
0000b0 82 46 1f 3e af 15 1f bd c7 63 6b 3d 8d f4 8e 3e
       0.1555424 -0.03883904 0.057468202 0.27920952
0000c0 48 45 14 3b 01 6c b4 3d 31 a7 a6 3e 22 6b 44 bd
       0.0022624303 0.088096626 0.32549432 -0.047953732
0000d0 bb aa 55 3e ed 5e 73 3e eb 50 7b bd cc 37 57 3e
       0.2086591 0.2376668 -0.061356466 0.21017379
0000e0 40 7c 95 3e 0a d4 e5 3d 97 63 0b 3e 7d f5 83 3e
       0.29196358 0.11222084 0.1361221 0.2577323
0000f0 32 31 65 3e 69 c6 c6 3d d4 62 1a bc dc 19 63 3e
       0.22382048 0.097058125 -0.0094229765 0.22177833
000100 2e b7 2c bd 5e 0e 82 3e f0 06 5b 3e 05 fc c6 3d
       -0.04216688 0.25401586 0.21389365 0.09716038
000110 23 c3 a9 3e 24 d6 40 3d 88 a2 b3 3c 0a 8f 3a 3e
       0.3315669 0.04707922 0.021928087 0.18218628
000120 7e d4 44 3e 75 2c 9a 3e 46 0f 93 3e d9 27 28 3e
       0.19221684 0.30112043 0.2872259 0.1642145
000130 c7 0a 4e 3d 17 f4 4e 3e 61 c1 86 3e 31 73 22 3e
       0.050303247 0.202103 0.2631941 0.15864255
000140 d6 66 68 3d b8 1f 6e 3c 91 12 99 3e 12 5f ef 3d
       0.056738697 0.0145339295 0.29896978 0.11688055
000150 8e cd 86 3e 04 90 a8 3e 5a 33 a0 3e 9b 04 17 3e
       0.263287 0.32922375 0.31289178 0.1474785
000160 aa a7 64 3e 90 a0 bf bb eb 85 5f bc b0 e1 8a 3e
       0.22329584 -0.005847998 -0.013642768 0.2712531
000170 23 19 b4 3d bd f1 f8 bc 10 3e 20 3d d0 2d d8 3d
       0.08793857 -0.030388707 0.039121687 0.10555613
000180 3d 4d 7f 3e b7 24 2a 3d 01 ea 6f 3e c3 d1 29 3d
       0.24931808 0.04153892 0.23429109 0.04145981
000190 b3 09 36 3e 45 0b 75 3e 4f 16 30 3e 6b f4 94 3e
       0.17777137 0.2393008 0.1719601 0.29092726
0001a0 33 65 20 3e eb f2 ef 3d 8e 2d b9 3e 3b d2 7d 3e
       0.15663604 0.11716255 0.36167568 0.24787228
0001b0 ec e5 7c 3e b5 dc d1 3d 9d 5b 38 3e a0 34 6a 3e
       0.24697083 0.10247175 0.18003698 0.22871637
0001c0 1d 18 05 3e d8 fc e2 3b 47 c1 90 3e 90 f8 5b 3e
       0.1299748 0.006927114 0.2827246 0.21481538
0001d0 c6 79 76 3e 8a ce a3 3e 6f 94 d4 3c 52 85 8c 3e
       0.2406989 0.31993514 0.025949685 0.27445465
0001e0 e7 43 9d bd 8a 02 82 3e 38 bb 5f 3e cc 44 7b 3e
       -0.07678967 0.25392562 0.21848762 0.24537963
0001f0 38 f7 58 bd e5 4d d2 3d 8c bc 2f 3e 23 6d 9c bd
       -0.05297014 0.102687635 0.17161769 -0.07638004

weight f4 [6, 128]
000000 8b 21 0b bd be 81 e5 3c 2e 9f bd 3c 34 6d ce 3c
       -0.033967536 0.028015967 0.023147192 0.025198556
000010 9c 3f 91 3c f2 e9 13 bd 5f ec e8 bc a4 64 4a bd
       0.017730527 -0.03611178 -0.028433023 -0.049412385
000020 b2 d3 b1 3d 0e e6 9c 3d 9f bb 97 3c eb 08 8a bd
       0.08682956 0.07661067 0.018522082 -0.06739982
000030 b1 59 1a 3d f9 d4 d5 bd 2b 7e 16 3c 5c 2a b1 bc
       0.037683193 -0.10441012 0.009185354 -0.021626644
000040 88 0f 47 3d 13 89 0f bd 75 24 85 bd 0c 35 1a bd
       0.048598796 -0.035042834 -0.06501094 -0.037648246
000050 94 e6 89 3c c8 d7 04 bc bb 2b db 3d 7f eb a2 3d
       0.016833581 -0.008108087 0.107017 0.079550736
000060 a9 57 91 3d 98 e1 d3 bc ea 33 90 3d 3c a3 41 3b
       0.07096798 -0.025864407 0.07041152 0.0029546758
000070 16 0a d2 3d a8 fc 18 bc 25 41 ad bc 33 a0 2e bc
       0.1025583 -0.009337582 -0.021149227 -0.010658312
000080 2c b5 57 bc 8b 3b ac 3c dc 57 aa 3d 5a 33 a8 3d
       -0.013165753 0.021024486 0.08317539 0.082129195
000090 32 fd 30 3d 4d 31 e6 3c 51 1f 9f bc 48 69 13 bd
       0.043210216 0.02809968 -0.019424113 -0.035989076
0000a0 d0 76 da bc 99 ac cb 3d cb 85 3a 3d ef 3b af 3d
       -0.026667982 0.0994503 0.04553775 0.08556353
0000b0 3a fa 4b 3d a2 31 26 3d f3 a3 ba 3c 4d 98 47 bc
       0.04979918 0.040574677 0.022783255 -0.012182307
0000c0 68 72 aa 3c 69 d1 22 3c ee 07 ca 3d 8a d6 f5 bc
       0.020806506 0.009937623 0.09864794 -0.030009527
0000d0 9a d8 1a bd 99 44 71 bc 9d aa a2 bc 52 32 f7 3d
       -0.037804224 -0.014725828 -0.019856745 0.12070145
0000e0 ad 18 87 3c fd 68 b4 3d 43 6c 06 3d 24 a8 b4 3c
       0.016491259 0.088090874 0.03281809 0.022052832
0000f0 0e 9b f2 3b 34 d1 bf 3d 0f f1 54 3d b4 03 e4 bc
       0.007403738 0.09366074 0.051987704 -0.027833797
000100 e7 df b7 ba ac 85 69 bc 75 55 a0 bc 27 3b 5d 3c
       -0.001402852 -0.014253061 -0.019572 0.013502873
000110 c6 58 b9 3d fe 6c a5 bc 7f 9d dd bd 77 88 ad bc
       0.09050135 -0.020193573 -0.108210556 -0.021183236
000120 5a 78 01 bd 15 80 2a 3d 9d a4 6e bb f8 93 99 bd
       -0.031608917 0.041626055 -0.0036414035 -0.07498926
000130 d8 61 2f 3d be 0b 97 3d c2 ad 37 bc 4b 77 03 bd
       0.04281792 0.073752865 -0.011210861 -0.03209619
000140 e1 f8 0b 3d 29 18 a3 3c 93 86 db 3c d2 99 aa bb
       0.034172896 0.019908981 0.026797568 -0.005206325
000150 58 84 04 3e c2 ae 9f 3d c3 6c bd 3d 61 1a 3b 3d
       0.1294111 0.07797004 0.0924926 0.045679454
000160 4e 6e 0e 39 4b ef 8b 3d 55 af 5c bc ca 70 e1 3d
       0.00013583267 0.06832751 -0.013469537 0.11007841
000170 98 96 a3 3d 5c 33 77 3d 1b f8 2b bc 3a 3b 92 bd
       0.07987708 0.060351714 -0.010496165 -0.07140203
000180 33 bf ec 3d 49 39 06 bb 38 32 1e bc ea 45 92 3c
       0.11559906 -0.0020480922 -0.009655528 0.017855603
000190 8e 06 9b 3d 38 d8 c8 3d 18 b3 5b bc 57 2b 1d 3b
       0.075696096 0.098068655 -0.0134093985 0.0023982131
0001a0 c2 61 7f 3d fa 1a c3 bc ca bd ce 3d e9 e7 3f bc
       0.06234909 -0.023816574 0.10094793 -0.0117130065
0001b0 ab 97 07 3e 75 a6 45 bc b6 a9 a1 3d 7e a4 f9 bc
       0.1324145 -0.012063612 0.07893698 -0.030473944
0001c0 72 b2 ef bc b8 49 93 39 6e 98 cf 3d 8a 64 a9 3c
       -0.029259894 0.0002809295 0.101364955 0.020677824
0001d0 c4 f7 e6 bb 31 55 87 3d ab 8d 43 bb 69 dd 1c bc
       -0.007048579 0.06608046 -0.002983908 -0.009574273
0001e0 d1 75 8c bd 27 36 fb bb c4 7c bc 3d 41 67 aa 3d
       -0.06858409 -0.0076663676 0.09203485 0.08320475
0001f0 98 43 50 bd c5 37 5f bd d6 2f d3 3b 6b 67 d9 3c
       -0.050845712 -0.054496545 0.0064449115 0.026538571
000200 7c 1d 10 be bc d0 8b 3d e1 f4 90 3c 24 20 81 ba
       -0.14073747 0.06826922 0.017694892 -0.0009851498
000210 d9 a4 17 bd 7a a4 06 bd d2 30 2a bd e9 95 a0 bd
       -0.037022445 -0.0328717 -0.041550465 -0.07841093
000220 09 f6 b5 3d 0f 78 3a bd 6b 26 10 3c 4f 36 b9 bd
       0.08884818 -0.045524653 0.008798222 -0.09043562
000230 6e 2b aa bd 00 c2 1e bc 58 64 8d bb e7 c0 39 bc
       -0.08309065 -0.009689808 -0.0043149404 -0.011337495
000240 37 dd 47 bd 41 59 ee bc 65 7f 66 bc 9b cd 94 3c
       -0.04879495 -0.029095294 -0.014068459 0.018164447
000250 05 5e d1 3c 8a 14 3a ba 9c 34 a0 3d 37 ff a4 bd
       0.025557527 -0.00070983975 0.078225344 -0.08056491
000260 53 4f d5 3d 5f 35 b3 bd b4 84 8c 3d 4e 7a a8 3c
       0.104155205 -0.08750414 0.068612486 0.020566132
000270 de 51 e5 3d 10 93 03 bd c9 0c 67 3d 9b 93 8b 3d
       0.111972556 -0.03212267 0.056408677 0.06815263
000280 06 09 27 3d 19 f5 3a 3c b4 04 1f bd 53 20 89 bc
       0.04078009 0.011410975 -0.038822845 -0.016739046
000290 69 3a 43 bd cf 96 7f bd fc 3a 2b 3e bb 9a 98 bc
       -0.047663126 -0.06239968 0.1672172 -0.018628469
0002a0 0c e9 c9 3c 27 02 ed bc 5f 69 18 bc a4 f8 ce bd
       0.024647258 -0.02893169 -0.009302466 -0.10106018
0002b0 9f 2b 74 bb 40 6a c2 3b b3 b3 ef 3d f4 b2 d5 3b
       -0.0037257446 0.005933076 0.11704197 0.006521577
0002c0 00 13 8f 3b 26 3f 75 bd b8 ad 41 3d 39 dc 08 bc
       0.0043662786 -0.059874676 0.04728481 -0.008353286
0002d0 1f 7c 4e bc 8f ef d4 38 3c 44 6e bd 80 bb 1c bc
       -0.012602835 0.00010153569 -0.058170542 -0.009566188
0002e0 f6 8c 56 3c bb 6e bc bd 55 5f b6 3c 0d 51 c0 3d
       0.013095131 -0.09200808 0.022262255 0.09390459
0002f0 39 70 39 3d dc 8b bf 3d a6 83 9b bc c8 c9 f4 bc
       0.04527304 0.09352848 -0.018983673 -0.029881373
000300 68 2a ba bd 71 7c c0 3a 25 ba c7 bc f6 cd 7c 3d
       -0.090901196 0.0014685524 -0.024380753 0.061719857
000310 97 7e ca 3d 14 bf 95 bd cd 40 96 3d 2d a8 d2 bc
       0.09887426 -0.07311836 0.073365785 -0.025714958
000320 63 e9 05 bd 94 38 b8 3d 2f 1b d5 3b f6 79 a1 3d
       -0.032693278 0.089951664 0.0065034847 0.0788459
000330 49 a6 43 bd 33 a7 f3 3d 52 08 e0 3b 20 91 64 3d
       -0.047766004 0.11897125 0.0068369294 0.055802464
000340 8e 9d 3c 3c eb ba 69 3d b5 c2 b4 3d 5a 6e 56 bd
       0.011512173 0.057063024 0.088262 -0.052351333
000350 92 3b c0 3b fa ed f8 3d 38 3d aa 3d 97 3e af bc
       0.0058664763 0.121547654 0.08312458 -0.02139215
000360 f3 6e 01 3d c6 e7 02 be 51 38 51 bd 52 27 ac 3c
       0.03159995 -0.12783727 -0.051079098 0.021014843
000370 c9 33 f9 3d c8 30 c5 bd a7 a8 67 3c 85 9b 88 bc
       0.1216808 -0.09628445 0.014139331 -0.01667572
000380 e1 4e 52 3d b1 67 87 bd 75 04 4a bc e1 71 54 3d
       0.051344756 -0.066115744 -0.012330164 0.051866416
000390 ec ab 38 bd ce fd 80 3d 40 2f f8 3c 61 9c 08 3c
       -0.045085832 0.062984094 0.030295968 0.008338065
0003a0 c8 5d f4 3c 86 ca 68 bb de 42 c5 3d e7 f8 5a 3c
       0.029829875 -0.0035521104 0.096318945 0.013365007
0003b0 3a f8 3c 3d 5d 33 62 3d ce 62 d7 ba ca a0 29 3d
       0.046135165 0.055224765 -0.0016432644 0.041413106
0003c0 d4 91 19 bd 42 28 ad 3b b8 6e 52 ba 6a 67 2c bc
       -0.03749259 0.00528434 -0.00080273626 -0.010522703
0003d0 2c 63 c7 ba ea a0 b8 3d 77 77 57 3d 28 e6 27 ba
       -0.0015212051 0.09015067 0.052604165 -0.00064048404
0003e0 35 1d ac bd cf a8 fb ba 97 76 79 bc 95 e4 1f bc
       -0.08404008 -0.0019200089 -0.015226028 -0.009759088
0003f0 69 0b 58 bd ae f6 57 3d 35 2d e6 3c 42 8c 74 bc
       -0.052745257 0.052725486 0.028097728 -0.014926018

bias f4 [6]
000000 d8 2f 58 3e 6c 0e ad 3d 95 85 42 3e d6 ba a7 3a
       0.21112001 0.084500164 0.1899627 0.001279677
000010 e4 ba 5a 3d dc 5e 18 bd
       0.05340089 -0.03719984

weight f4 [128, 6]
000000 78 a9 91 bd ea 67 59 be 1c e4 c1 bc 09 36 c4 3d
       -0.07112402 -0.21231046 -0.023668341 0.09580619
000010 1e 2b 93 3e af 0c 54 3d 6a f3 9b 3d cf 7e 31 be
       0.28743833 0.05176991 0.07614787 -0.1733353
000020 86 72 86 3b 50 e5 a3 bd 14 28 d9 3d 89 5b b1 3e
       0.0041030077 -0.08002722 0.106033474 0.34640148
000030 18 9e 94 3e cf db be bd 6c 6b 8e 3e be e6 1d be
       0.29026866 -0.09319269 0.2781633 -0.15420052
000040 8d 06 56 be 5f 61 c9 bd 81 05 5b bd 71 be db bd
       -0.20900936 -0.09833025 -0.053472046 -0.10729683
000050 08 89 85 3e 57 f5 b5 bd c1 50 c6 3c 35 5a 6a bd
       0.2608111 -0.088846855 0.024208428 -0.057214934
000060 e5 52 bd bd fd be 85 3d 76 66 fb bd 9f 9a 15 be
       -0.092443265 0.06530569 -0.12275402 -0.14609765
000070 62 af 56 3e 18 00 d5 3d e4 7c 1e 3d c6 e6 ad 3e
       0.2096534 0.104004085 0.038693324 0.3396513
000080 c9 77 54 be 35 7a 97 3e ad e4 da 3c 64 7c 92 3d
       -0.2074882 0.29585424 0.02672037 0.07152632
000090 b1 70 5e 3e ce 2a 85 bd 44 1a 42 be 76 d4 ac 3e
       0.21722676 -0.06502305 -0.18955332 0.33755845
0000a0 7e 74 42 be 2a d2 1b bb 0a 3d 82 3e f3 1a 66 3e
       -0.1898975 -0.002377639 0.25437194 0.22471218
0000b0 8f 62 44 be d1 39 16 be da 8f 2e be a7 87 3c 3b
       -0.19178222 -0.14670493 -0.17047063 0.0028767379
0000c0 d9 a0 4a 3e ff 1d 88 3d 30 c7 41 be 95 e1 00 3e
       0.19787921 0.06646346 -0.1892364 0.12586053
0000d0 21 45 60 3e 9e c2 c0 be 1f ec 72 3e 8a b5 a3 bc
       0.2190137 -0.3764848 0.23722886 -0.019984026
0000e0 07 db 08 3d 31 9a d9 3d 98 d9 8c 3c dd e4 16 be
       0.033412006 0.10625113 0.0171936 -0.14735742
0000f0 8d 93 85 3e c7 32 44 3e 21 f7 1d be 46 ba 6b be
       0.26089135 0.19159995 -0.15426303 -0.23020276
000100 30 61 52 3e 6a f1 c0 3c 18 85 48 be 3f b6 aa 3d
       0.20544887 0.023552615 -0.19582021 0.08335542
000110 35 7f 4e be 55 b5 30 3e ff c8 01 bd 24 db 61 3e
       -0.20165713 0.17256673 -0.031685825 0.22056252
000120 47 ac ab 3c ca 81 60 3e c2 98 e3 bd 29 99 1f 3e
       0.020956172 0.2192451 -0.111131206 0.1558577
000130 61 00 3a 3e 8d 51 89 be 31 bf a6 3e cd 02 5e 3e
       0.18164207 -0.2682003 0.32567742 0.21680756
000140 4e 80 87 3e a6 53 01 3c a8 67 0b 3e 44 dd 24 3d
       0.26465076 0.0078934785 0.1361376 0.040250078
000150 58 3e 1f be e9 e2 2f 3e bb cf 3c 3e f2 9b 8c 3e
       -0.15551126 0.17176403 0.18438618 0.27462727
000160 98 42 f0 bd 44 76 66 be 6c f7 07 3e f9 72 93 be
       -0.11731452 -0.22506052 0.13277978 -0.28798655
000170 b8 74 80 be 7f 82 f3 bc 9b c5 87 3e f5 08 88 3e
       -0.2508905 -0.029725311 0.26517949 0.26569334
000180 c8 e9 cf 3e b5 bf 4f be 31 21 4f 3e 1c 4e e1 3d
       0.40608048 -0.20287974 0.20227505 0.11001226
000190 ed 6c a1 3d db a5 86 bc 1f 2e e5 3c 74 8c 4e 3e
       0.07882104 -0.016436508 0.027976094 0.20170766
0001a0 d3 ad 46 be 6d 31 36 be 7b 64 74 3d 43 f8 9d bd
       -0.19402246 -0.17792292 0.05966614 -0.07713368
0001b0 dc 54 29 3e 9c c8 bc bd 99 ac 51 3e ff 73 9e 3e
       0.16536278 -0.09217951 0.20475997 0.30947873
0001c0 55 a4 d0 3d d2 dc 44 be f7 28 57 3e 59 43 09 be
       0.10187594 -0.19224861 0.2101172 -0.13404597
0001d0 95 91 90 3e 9a 4d ba 3d 9b ed 29 be 87 03 9b 3e
       0.2823607 0.090968326 -0.16594546 0.3027613
0001e0 94 7e 5f bd ff d3 a8 3d f1 d3 d6 3d c6 ce 56 bd
       -0.054564074 0.0824356 0.10489643 -0.05244329
0001f0 dd 8e f4 bd a8 4c 0b bd 13 6e a4 3e 5c 43 97 3e
       -0.119413115 -0.034008652 0.3211523 0.2954358
000200 ff 84 6c be c0 f2 6d be 97 93 43 3d 03 d9 7d 3d
       -0.23097609 -0.23237133 0.047748175 0.061974537
000210 b9 e7 0d be d5 e8 de 3d b3 19 45 3e a2 41 78 3d
       -0.13857926 0.10884253 0.19248085 0.060609467
000220 c8 bb 0a be 86 29 a0 bd f1 a2 ea bd 84 6f b3 be
       -0.13548195 -0.0782042 -0.1145686 -0.35046017
000230 72 f3 af be ac f7 94 be fc 83 59 be 19 3d b2 3e
       -0.34365422 -0.2909521 -0.21241754 0.3481224
000240 27 62 e8 be 0a 1e 22 be e5 fe 3e be 97 29 50 be
       -0.45387384 -0.15831771 -0.18651922 -0.20328365
000250 ed 01 20 be ec 83 a8 be c5 a4 a2 bd 52 cf 63 be
       -0.15625735 -0.32913148 -0.079415835 -0.22247055
000260 c2 25 0b bd 09 bc c0 3c bf 96 22 3e 96 a7 fb 3d
       -0.033971556 0.023527162 0.15877818 0.12287824
000270 92 25 20 3d 79 da 86 3e e9 7d 8e 3d a6 ee 72 3e
       0.03909833 0.26338556 0.06957609 0.2372385
000280 ce 6a 44 bd 62 af 50 3e 64 a0 92 bd a1 8c 02 bf
       -0.04795342 0.20379403 -0.07159498 -0.5099583
000290 ab 96 36 be fc c3 14 be 82 e7 15 be 77 b8 63 be
       -0.17830913 -0.14527887 -0.14639094 -0.22238337
0002a0 09 52 43 bd 88 6d 57 3d 16 52 79 3e 65 17 24 3e
       -0.047685657 0.05259469 0.2434772 0.1602455
0002b0 23 53 f3 bd 00 75 71 be fb 15 18 bf 90 de 2f 3e
       -0.118810914 -0.23579788 -0.5940854 0.17174745
0002c0 fb 93 cd be 2c 68 be bd b7 ac 68 be e2 1b 71 be
       -0.40151963 -0.09297213 -0.22722135 -0.23545793
0002d0 17 c1 65 3d f8 1f 18 3e 86 25 8c bd 55 e3 63 3d
       0.056092348 0.14855945 -0.068430945 0.055636723
0002e0 20 94 25 be 97 e3 f9 bd b9 69 72 3e 79 d5 ee 3c
       -0.16169786 -0.122016124 0.23673142 0.029154526
0002f0 a9 5c 59 3c 80 3c c9 bd 3b 1e 73 3d 39 2c 1d be
       0.013266721 -0.098259926 0.059355002 -0.15348901
000300 61 de ae 3e 64 49 e9 be a6 22 3a be 79 78 5a 3e
       0.34154037 -0.45563805 -0.1817728 0.21335019
000310 71 f6 85 3e 0f c8 0e 3e 15 1a 60 be 49 33 7b bc
       0.26164582 0.13943504 -0.2188495 -0.015332052
000320 31 c3 49 3e 03 17 94 bd cd ef 5e 3c b3 e3 0b be
       0.19703366 -0.07230952 0.013606978 -0.13661079
000330 5e 7a e6 3d 21 53 e6 be 1e b3 12 be 53 4d 34 be
       0.112538084 -0.44985297 -0.1432614 -0.17607622
000340 51 b1 42 bc c7 84 05 3d 39 61 81 bd 7c 87 23 3e
       -0.011883096 0.03259733 -0.06317372 0.15969652
000350 df c2 94 3e 05 ca 86 be 5a 48 7c 3e 3a b6 73 bd
       0.29054925 -0.26326004 0.24636975 -0.059499957
000360 c1 c9 92 be 2b cf 77 3c 63 4b 7d 3e 32 d6 16 3e
       -0.2866955 0.015125076 0.24735789 0.14730147
000370 d2 33 7c 3e bc da 83 3e 2a 62 b2 3e 88 45 d6 3e
       0.24629143 0.2575282 0.34840518 0.41849923
000380 ca 53 26 3d 61 f5 40 bd 0a 02 5a bf 6b 64 bd 3d
       0.04060725 -0.04710901 -0.8515936 0.09247669
000390 b5 bf f0 bc 5a ea 12 3e 9f 21 c5 bd 45 ca 08 be
       -0.029388288 0.1434721 -0.09625553 -0.1335841
0003a0 18 21 24 be af 70 09 3e 68 e5 c5 bd 1b 84 63 3e
       -0.1602825 0.13421892 -0.096628964 0.22218363
0003b0 ef 0c 2a be 4f 52 03 3e b7 ef 01 3e 8c 51 02 be
       -0.16606496 0.12824367 0.126891 -0.1272642
0003c0 be 75 36 3e 3b 94 65 3a 78 24 80 bd dc cb 8b be
       0.17818353 0.0008757745 -0.06256956 -0.2730397
0003d0 3c a7 a0 3e be 30 0c 3e 61 e8 3c 3e af fd 98 be
       0.3137759 0.13690469 0.1844802 -0.29881045
0003e0 20 0f b0 bc f0 51 64 bb e5 f6 8a bd 7d 2e 5d 3e
       -0.021491587 -0.0034838878 -0.06785373 0.21599765
0003f0 ee 14 2f 3e 90 fc 08 3e 20 54 a0 3e f5 0e f1 bd
       0.17097828 0.13377595 0.31314182 -0.11770431

bias f4 [128]
000000 a5 d9 0f 3e c7 10 0c 3e 51 e2 bf be 41 4a c1 3d
       0.14047869 0.13678275 -0.37477353 0.09437991
000010 8f 5d 1e 3e c4 26 ce be db a0 34 3d c6 5f e5 3d
       0.15465377 -0.4026395 0.044098716 0.11199908
000020 43 12 df 3c fe 9f 8c 3d e1 ec 00 3e 27 c3 50 3e
       0.027230388 0.068664536 0.12590362 0.20386945
000030 95 98 27 be 20 fc b5 be ae 77 2a 3e 32 57 81 be
       -0.16366799 -0.3554392 0.16647217 -0.25261837
000040 2d c6 95 be 82 e4 40 3e fc dc 17 bc 28 8a 4b be
       -0.2925276 0.18837169 -0.009268995 -0.19876921
000050 25 05 c9 3d e5 71 54 3d c5 87 50 3e dc 1b 60 3d
       0.09815434 0.05186643 0.20364292 0.05471407
000060 24 31 a1 3e 92 df 08 3e 97 7d c2 3d 86 95 29 3d
       0.31482804 0.13366535 0.094966106 0.041402362
000070 2f 6c 1b 3e ff 3d 91 3e b1 70 20 3e f4 02 86 3d
       0.15177988 0.28367612 0.15667988 0.06543532
000080 6c d9 51 be 95 f2 81 3e df af 3e 3d a5 e3 81 bd
       -0.20493096 0.25380388 0.046554442 -0.06342248
000090 e3 38 1f be e7 6d c7 be b8 fc 18 3e 32 75 03 3e
       -0.15549044 -0.38951036 0.14940155 0.12837675
0000a0 1a c3 d7 3d b0 27 cb 3b 13 64 74 be 7c aa 81 3e
       0.105352595 0.0061997995 -0.238663 0.25325382
0000b0 e7 24 e9 3c 66 21 3b 3e 8d 62 4a be 24 f0 aa 3d
       0.02845998 0.18274459 -0.19764157 0.083465844
0000c0 28 ed fa 3d c8 12 2d 3d f9 7f 13 3e 38 a6 0e 3c
       0.12252265 0.04225424 0.14404286 0.008706622
0000d0 26 57 31 3e a2 8b 26 bf ae cc 3a 3e 0c f9 f3 3d
       0.173184 -0.6505681 0.18242142 0.11912736
0000e0 b2 eb ad be 4d eb aa 3d 66 53 70 bd 7c 66 12 3e
       -0.33968884 0.08345661 -0.058673285 0.14296907
0000f0 10 f3 79 3d 81 4c dd 3d ce 94 1c 3e 2f a7 a3 be
       0.061022818 0.108056076 0.1529114 -0.31963488
000100 b5 5f d3 be 24 21 88 3d 09 b2 e5 3d d3 f4 f2 3d
       -0.41283956 0.06646946 0.11215598 0.11863103
000110 66 f4 ba 3d 6c 80 c2 bd 0b 09 0e 3e 8d 0e 9d bd
       0.091286466 -0.09497151 0.13870637 -0.07668791
000120 10 c3 10 be bd d7 aa 3d 6a bb 8f 3d 56 0b a9 3d
       -0.1413691 0.0834193 0.07018168 0.08254115
000130 21 3c ae bc a2 db 1a 3e 7f 49 04 3e 0b a2 7f 3e
       -0.021268906 0.15122846 0.12918662 0.24964158
000140 6e 5d bc 3d d6 72 dd 3b 37 40 c4 bc 20 8d f3 bd
       0.09197508 0.0067580743 -0.023956401 -0.11892152
000150 92 4c 8e 3d 5a 4a fc 3c 95 8f 16 bf 8f 45 0f 3e
       0.069481984 0.030797172 -0.5881284 0.13991378
000160 42 26 11 3e 07 47 86 3d ae db d9 be 04 88 50 3e
       0.1417475 0.06556516 -0.42550415 0.20364386
000170 da 83 07 3e b5 db 06 3e 88 4d 94 3d 80 ef 3b 3e
       0.13233891 0.13169749 0.072413504 0.18353081
000180 3f cc 2d 3d b5 68 22 3e 06 82 12 be 90 1b 84 be
       0.042431112 0.15860255 -0.14307413 -0.2580228
000190 bb db 85 be e5 a6 cd 3d eb 19 83 3e 16 d7 12 3e
       -0.26144204 0.10041598 0.2560571 0.14339861
0001a0 ab 92 ab 3d a8 ab 1a 3e a3 4c 7d 3d ce 9e 36 3e
       0.08377584 0.15104544 0.061840665 0.17834017
0001b0 26 f1 25 be 26 9b 88 bb bb d9 69 3d 48 6e f9 3d
       -0.16205272 -0.0041688858 0.05709241 0.121792376
0001c0 00 fa 9b be 07 80 78 3e b5 03 ff 3d c4 64 02 3e
       -0.30464172 0.24267589 0.12451879 0.12733752
0001d0 cb ed d2 be 49 9e 30 3e 32 ee 3f 3e 0d c9 b5 3d
       -0.41197047 0.17247881 0.18743208 0.08876238
0001e0 aa 8d 50 3d e9 f6 21 3e 0c 33 b1 3d 6b 76 1b 3e
       0.05091635 0.15816845 0.086523145 0.15181892
0001f0 ab a5 a4 ba ea 7f 6a 3e 7e 36 ba 3d 5c c0 2c 3e
       -0.001256158 0.22900358 0.09092425 0.16870254

weight f4 [256, 128]
000000 2c ec e9 3c f9 f7 0e bd 31 87 c5 3a f0 d5 95 bc
       0.028554998 -0.034904454 0.0015070197 -0.01829049
000010 da f7 ee 3c eb 83 0e bc 89 5f 80 bc eb 1f 92 bc
       0.02917092 -0.008698444 -0.015670555 -0.017837485
000020 f3 4b 8a 3c d0 bc b0 3a b3 6e 8d bc 5e 1b 2c 3b
       0.016881919 0.0013484005 -0.0172647 0.002626143
000030 6a c3 21 3c d2 ce 54 3c 4a 83 a7 bc 68 ed 05 3d
       0.0098732505 0.012988763 -0.020448346 0.03269711
000040 7a b2 a9 3a 37 f6 01 3d 79 32 63 bc 73 24 72 bc
       0.0012946867 0.03172895 -0.013867014 -0.014779198
000050 e1 e0 30 3c a5 2c cb 3c d0 80 04 3c 13 3d 97 3c
       0.010795803 0.024801562 0.008087352 0.01846174
000060 0f 11 35 3d cb 0e 1b bc 8f 7a 21 3d 45 57 5d bc
       0.04420572 -0.009463976 0.03942352 -0.013509576
000070 7c 25 bb bb 25 cc 8e 3d 3c 2d 74 3b 2c 6e 0f 3c
       -0.0057112556 0.06972531 0.0037258407 0.008754294
000080 c8 72 32 3b a1 25 e3 3b c7 eb 0d bd 9b 79 71 3c
       0.002722906 0.006931976 -0.034648683 0.014738466
000090 71 f6 80 3b 89 91 e0 3b 09 92 88 bc 79 43 44 3d
       0.003935628 0.0068532866 -0.016671197 0.04791591
0000a0 91 0e cd 3c f0 2c e0 bc 2f c8 88 bc 6a 7f 7b 3c
       0.02503136 -0.027365178 -0.016697017 0.015350202
0000b0 24 7e a7 bb d2 95 9e bc 49 20 f8 bc fd 18 b4 3b
       -0.0051114727 -0.01935855 -0.030288832 0.005496143
0000c0 8d 7e 2b bc d8 58 39 3c ea 88 99 3c 37 18 14 3c
       -0.010467184 0.011312686 0.018742044 0.009038976
0000d0 e6 4f cb 3c b9 e0 81 3b 93 99 73 bc ef e2 91 3c
       0.024818372 0.0039635566 -0.014868158 0.017808406
0000e0 c2 ad 10 3d 01 21 45 bc f7 bc 8a bc ce 6b 98 bc
       0.03532196 -0.0120317945 -0.016935809 -0.018606093
0000f0 61 e3 ff 3b 55 fc 3c bd 0b 36 a4 3c 95 65 1b 3c
       0.007809088 -0.04613908 0.020045301 0.009484668
000100 e4 cb 90 3a 22 44 a6 bc 57 1a 06 3c e2 ff 48 bb
       0.0011047092 -0.02029616 0.008184991 -0.0030670096
000110 ce b3 fb 3b d3 21 1a bc 64 1c b4 3b d6 65 09 bd
       0.0076813465 -0.009407478 0.0054965485 -0.033544384
000120 76 16 cf 3c 96 38 ac bc bd 76 4f 3b 49 3d a8 bb
       0.025279265 -0.021023076 0.0031656467 -0.005134259
000130 cc 80 0d 3c 71 92 56 3c 9c d9 09 3c 92 5d 10 bd
       0.008636665 0.013096438 0.0084136985 -0.035245486
000140 4b 42 19 3d f5 9f 9f 3c 6e fd 0c bc 07 78 c3 3c
       0.037416738 0.019485453 -0.008605344 0.023860944
000150 91 98 9e bc 03 85 42 bc ff f0 68 bc 9b 55 10 3d
       -0.019359859 -0.011872533 -0.014217614 0.03523789
000160 98 bc 95 3c 1c 9f b1 bc f0 55 11 3d c2 23 7a bb
       0.018278405 -0.021682315 0.035482347 -0.0038168286
000170 e3 54 22 3a e5 43 16 3d 24 2d 1e 3b cb 22 69 bd
       0.00061924587 0.036685843 0.0024135793 -0.056917947
000180 03 49 f6 bc 4e 1c 3b bc ae e2 e8 bc 0c ec d5 bc
       -0.030064112 -0.011420323 -0.028428402 -0.026113532
000190 76 db 8c bc 67 12 a6 bb 25 be fe 3c c7 c5 28 3d
       -0.01719449 -0.0050681117 0.031096527 0.04120424
0001a0 aa 8d 8b bb 48 e8 98 bd bd 46 f6 3c 83 fa 67 bd
       -0.004258831 -0.07466179 0.030063028 -0.05663539
0001b0 6c 41 25 3c 35 73 0a bd 91 fc f3 bc 1e e4 1a 3b
       0.010086399 -0.033801276 -0.029783519 0.0023634504
0001c0 6c 16 62 bd 0c c0 b2 3b 58 cc b2 3c c2 4c f7 bc
       -0.055197164 0.0054550227 0.021825954 -0.030187968
0001d0 b6 d6 d4 3b 3a 31 25 3c 94 cb ae bc 39 55 b3 3c
       0.006495322 0.010082537 -0.021337308 0.021891223
0001e0 fa 95 c4 bc b8 5e 81 bb 2d d6 9a bc eb 85 86 bd
       -0.023997296 -0.003948059 -0.018900955 -0.065685116
0001f0 45 cd d2 3c 42 de 34 3c 38 89 eb bb 71 56 61 3d
       0.025732646 0.0110393185 -0.0071879886 0.055014078
000200 76 25 e5 bc 09 33 3a 3c fc 1b 67 3c 9e 3b c0 3c
       -0.027971964 0.011364707 0.014105793 0.023465928
000210 ff a1 17 3c dd 2e 00 3c a8 57 33 bd f4 fa c7 3c
       0.0092549315 0.007823673 -0.043784767 0.024411656
000220 67 b9 33 39 c3 59 52 3b be 45 5c 3c d3 27 ba bc
       0.00017139838 0.003209696 0.013444362 -0.022724068
000230 b7 65 8b 3a 17 96 ea 3c 4e b5 bb bb 5a 01 91 3c
       0.0010635172 0.028636022 -0.0057284003 0.01770084
000240 c5 0f 6c b9 63 05 db 3c 41 85 1f 3c 1e 6d c9 3b
       -0.00022512588 0.026735967 0.00973636 0.006147041
000250 2e e2 2f 3b 40 d1 2b 3d f4 7b 79 bc 19 19 e2 bc
       0.0026837694 0.041947603 -0.015227307 -0.027599858
000260 39 74 f5 3c 89 5e 11 3c 5b 25 3b bc a3 3e 89 bc
       0.029962646 0.008872637 -0.01142248 -0.0167535
000270 cb 75 46 bb 18 f1 4c 3d 5b 6f e2 bb 7b b7 22 3d
       -0.0030282612 0.050034612 -0.0069102473 0.03972576
000280 3e 91 ab bb 3a 04 91 ba 39 ef a9 bb ea de 74 3d
       -0.00523582 -0.0011063882 -0.0051859883 0.0597829
000290 ef 73 5d 3b 62 0c fb 3c 23 59 62 3b 88 1a af 3c
       0.0033791026 0.030645553 0.0034537993 0.021374956
0002a0 51 3c 32 3d 5d 96 d0 3c 1b 62 a8 3c 4f 13 e3 3c
       0.043514553 0.025462324 0.020554593 0.027719168
0002b0 00 18 be 3c bf 8c 0d bc 0c 46 83 bc ba 98 d4 bc
       0.023204803 -0.0086395135 -0.016024612 -0.025951732
0002c0 7b f3 16 bd 0a d1 07 bb 91 30 38 bd ef aa 75 bc
       -0.036853295 -0.0020723962 -0.04496819 -0.014994367
0002d0 2a 99 2a 3c 30 9f a2 bc 8b 06 72 bb f9 cb b2 3b
       0.010412494 -0.019851297 -0.003693017 0.0054564443
0002e0 70 19 1b 3d 47 d6 60 3c 65 23 03 3c 64 e2 48 3c
       0.037866056 0.013722963 0.008004044 0.012261007
0002f0 0c 16 77 3c 35 27 21 3a 8e 6a 83 bc e8 d0 88 3c
       0.01508094 0.0006147505 -0.01604202 0.016701177
000300 a2 9b 0c 3d 7e 0c f5 3b 40 8c 18 3c 2a e4 0e bd
       0.03432811 0.007478296 0.009310782 -0.034885563
000310 0f c2 b1 3c 7b 12 f6 3c 7f 9f 0e 3d 2a 38 03 bc
       0.02169898 0.030038109 0.034820076 -0.008008996
000320 0c 28 3f 3d f5 64 24 3d 75 03 dc 3c 29 37 46 bc
       0.04666905 0.040135343 0.026857117 -0.012098112
000330 be 9b d2 3b b8 d3 98 3c 9c 4b a3 3c 4a be 15 3c
       0.0064272573 0.018655643 0.019933514 0.009139607
000340 07 33 20 3d c9 11 eb 3c c3 88 7b 3b 2f a8 e9 3b
       0.039111163 0.028695004 0.0038381077 0.0071306447
000350 19 7b e5 3c 72 f4 bb 3c 65 20 dd bb 43 ee c6 3b
       0.0280128 0.022943709 -0.0067482465 0.0060708835
000360 14 2e 9d bc cf a3 57 bc f3 9a 1c 3d 28 0d 46 ba
       -0.01918701 -0.013161614 0.03823371 -0.0007555061
000370 da c5 b6 3a 77 ac 61 bc 59 50 12 3d b5 9e 34 3b
       0.0013944462 -0.013774029 0.035721157 0.0027560417
000380 e0 33 81 3c e9 7c 4c bb cb c3 a1 bd 96 ee 12 3d
       0.015771806 -0.0031202382 -0.07898673 0.035872065
000390 9e a8 a0 bc 94 1c 4d bc 12 6a 01 3d f8 e0 74 bc
       -0.019611653 -0.012519021 0.031595297 -0.014946215
0003a0 72 79 39 3d 90 97 a0 3c 0b c0 52 3d 8c 1b dc ba
       0.045281835 0.01960352 0.051452678 -0.0016792878
0003b0 63 bb 2d 3c 72 f0 77 bc c7 e6 8d 3c 40 9b 3b bc
       0.0106037585 -0.01513301 0.017321957 -0.011450589
0003c0 e1 66 02 bc d3 a9 3d 3c 9e af 5e 3c 36 ce 8f bc
       -0.007959099 0.011576134 0.013591675 -0.017554384
0003d0 c8 2c 02 3d 15 75 03 bb dc 47 a5 bc fd fc 2e bc
       0.031780988 -0.00200588 -0.020175867 -0.010680434
0003e0 04 26 d3 3c 73 3b 16 bd d1 3b 49 bb de 45 b9 3c
       0.025774963 -0.03667779 -0.003070582 0.022616323
0003f0 c5 4a 42 3d cb ea b4 3a 0d fd 0c bc 60 78 27 3c
       0.047434587 0.0013802884 -0.008605254 0.010221571

bias f4 [256]
000000 31 55 1e 3d e9 d6 e1 bd f5 af 23 bd 62 14 2d bd
       0.038655464 -0.11027319 -0.039962728 -0.042255767
000010 a1 f7 03 bf de 65 cb bc 34 e8 24 be 4b 7f 81 3d
       -0.51549727 -0.024828847 -0.16104203 0.06323107
000020 14 79 00 be 8f d7 3a 3d 53 72 72 3d 33 0b 7e 3d
       -0.12546188 0.04561573 0.05919106 0.0620224
000030 fc 8d 61 be 16 c1 42 bd 81 86 68 3d b7 ff e8 3d
       -0.22026819 -0.047547422 0.056768898 0.11376899
000040 d7 b1 2f be 3c e8 19 bd 66 d0 9c bd 49 ab c3 bd
       -0.17157684 -0.03757499 -0.07656936 -0.095541544
000050 30 4d 34 3c d4 80 a3 3d 70 c9 dc 3d 3b d2 a9 bb
       0.011004731 0.079835564 0.10780609 -0.005182532
000060 41 b9 e1 bd e6 4a 29 3d d2 f6 e2 3c 85 e8 24 3d
       -0.110216625 0.041331194 0.027705584 0.04026081
000070 09 e0 c9 bc 04 3d d0 bd 73 a8 dc 3d 4a 95 d4 bd
       -0.024642961 -0.10167888 0.10774317 -0.10380037
000080 74 0b d9 3b 31 88 ea 3d 4f 83 71 be 02 df 35 3d
       0.00662368 0.11451758 -0.23585247 0.04440213
000090 ad 4b 65 be ea 60 10 3e f5 ad 85 3d 64 47 5b bb
       -0.2239215 0.1409947 0.0652732 -0.00334593
0000a0 8e 66 15 bd 17 94 03 bc 4f 8e ef bd ec 0d 9e bc
       -0.036474757 -0.008030913 -0.11697065 -0.019293748
0000b0 a0 68 07 3e 96 fe a2 bc 29 12 16 bd 83 31 0e bd
       0.13223505 -0.019896787 -0.036638413 -0.034715187
0000c0 8b 5a a4 3c 05 5b 9c 3d fa 11 07 3b 05 b5 0c bd
       0.020062706 0.07634548 0.002061008 -0.03435232
0000d0 91 18 12 3e 52 10 f1 3c 5e e2 04 3d 1a e4 bc bc
       0.14267184 0.029426727 0.032442443 -0.023057986
0000e0 c9 61 b2 3d f0 1b 5f 3c 80 1f c9 be 56 9c 8c bb
       0.08710057 0.013617501 -0.39281845 -0.0042910976
0000f0 83 95 87 bd 7e 2d ff 3c 1b df 45 3d 08 ab b4 bd
       -0.06620314 0.031149622 0.048308473 -0.08821684
000100 d8 6e 27 3d 5b 7f 9b be eb 1c 83 bd df 37 35 3d
       0.040877193 -0.30370602 -0.06402 0.044242736
000110 d0 72 81 3d b4 69 f0 bc ea 92 b7 3d 55 ef 6e 3d
       0.06320727 -0.029347278 0.089635685 0.058333714
000120 b2 e0 25 bc e3 9a 27 bd 30 c0 11 3d e3 65 08 bd
       -0.010124372 -0.040919196 0.035583675 -0.03330029
000130 a3 1b ce 3d 4b e5 41 3d c8 1f a0 3d f1 34 a3 3c
       0.10063865 0.04733781 0.07818562 0.019922705
000140 df 99 33 bd 96 de a6 be 71 33 66 3d fd df 0c bd
       -0.043847915 -0.32591695 0.056201402 -0.0343933
000150 45 0a 15 bd 00 bc f8 bc 17 c4 5b 3c cc e9 40 3d
       -0.036386747 -0.030363083 0.013413451 0.047097966
000160 af 9d 28 3d e7 d7 e5 bc be 8c e1 3d 83 59 3b bc
       0.041166004 -0.028057052 0.110131726 -0.0114349155
000170 53 6f a0 bd 70 25 e6 3d 00 5a 54 bc 2a 13 1d 3d
       -0.078337334 0.112376094 -0.012960911 0.038348354
000180 3e a8 b3 3d cd 8b e8 3d 16 bb cc b9 16 e6 0d 3d
       0.08772324 0.1135479 -0.00039049302 0.034643255
000190 f8 f3 d1 bb 75 3b 84 be 4d 01 99 3d 2b 73 dc 3c
       -0.006407257 -0.25826612 0.07470951 0.026910385
0001a0 ae ed 25 3d ba fd cf bd 1f 66 02 be 7c 9b 47 3d
       0.040509872 -0.101558164 -0.12734269 0.048732266
0001b0 16 d9 a3 3c 83 e3 47 3d 42 e1 c6 ba de 27 91 bc
       0.020000976 0.048800956 -0.0015173333 -0.017719205
0001c0 c7 a5 f2 bd 24 c8 d2 3d bc 8d 39 3d 6e a5 51 bd
       -0.11848026 0.1029208 0.045301184 -0.051183157
0001d0 74 d1 19 bb 2c 9e 9a 3d 79 50 0e 3d c4 d8 4f be
       -0.002347079 0.075497 0.034744713 -0.20297533
0001e0 51 1f 85 3d 4d 16 0e 3d 11 a5 09 bd cd 4a ec bd
       0.06500114 0.034689236 -0.033604685 -0.115377046
0001f0 96 04 26 3e d9 61 6c bd 68 aa 03 3d 59 4f 05 3e
       0.16212687 -0.057710502 0.032144934 0.1301855
000200 c7 7f 9c 3d 7f b8 f6 bd 65 6e f2 bc 45 48 0c 3e
       0.07641559 -0.120469086 -0.029593656 0.13699444
000210 47 59 a4 bc c4 9c be 3d eb 82 b5 3c 43 1e 2a 3d
       -0.020062102 0.093072444 0.022157153 0.041532766
000220 4d cf 5b bd 23 68 ee bc 9b dd 42 be d3 bc 10 3e
       -0.053664494 -0.02910239 -0.19029848 0.1413453
000230 3d 11 08 be e7 2c da 3c 46 27 7e 3b 62 9a ae 3d
       -0.13287826 0.02663274 0.0038780733 0.0852554
000240 75 22 11 3c ad 31 18 be 32 28 11 3d 43 83 0c bd
       0.008858313 -0.148627 0.035438724 -0.03430487
000250 6e af 5f bd ef b9 8c bc 7b 28 1c 3a 38 f8 0c bd
       -0.054610662 -0.017178504 0.000595696 -0.034416407
000260 20 1a dc 3d db 7c 5c bd 5d 87 c9 bc f4 df 66 bc
       0.107471704 -0.05383001 -0.024600679 -0.0140914805
000270 fc fc 70 bd 34 ad 16 3d b5 0c db 3d 5e d5 e6 3d
       -0.058835015 0.036786273 0.10695783 0.11271165
000280 b3 ab d8 3c df 40 64 3d 35 42 a6 be 27 da 11 bc
       0.02644906 0.05572593 -0.32472387 -0.008902109
000290 41 18 35 3d 77 82 19 3d c8 f7 61 3c 45 36 c1 3d
       0.044212583 0.037477937 0.013791986 0.09434179
0002a0 71 97 d4 3d 42 2a 4e b9 82 59 a3 3d 1d fc 00 3e
       0.10380448 -0.00019661433 0.07976057 0.12596174
0002b0 b3 c1 e2 bc 6e 28 e6 bd 85 ad c2 3d 01 40 23 bd
       -0.027680254 -0.1123818 0.095057525 -0.03985596
0002c0 e0 53 de bd 76 7f b7 3c ec 39 3e bd 53 24 4a 3d
       -0.10855842 0.022399645 -0.046441957 0.049351048
0002d0 17 25 b6 be ad 12 95 bd 9a ec 02 3e 6c f1 47 3d
       -0.35575172 -0.07278953 0.12785569 0.048814222
0002e0 22 68 2d 3c f9 ba f2 3b 77 27 22 3d 3a 30 84 bb
       0.010583909 0.007407543 0.039588418 -0.0040340694
0002f0 37 bd 66 3d 6e 58 b9 3d 1d af f7 3d 11 59 cb 3d
       0.056332793 0.0905007 0.12093947 0.099290974
000300 39 e7 8a 3d 54 69 c0 3b b9 cf e2 3c 4c 0b 79 3c
       0.067823835 0.005871931 0.02768694 0.015200447
000310 d2 b9 1c bd 65 82 e7 3c b0 38 a6 3d 52 ec 82 3d
       -0.03826315 0.02826042 0.08116281 0.06392731
000320 3a 66 8f 3c 9a 55 02 bd 6e 42 f9 3d d6 de f3 3d
       0.0175048 -0.031819917 0.121708736 0.11907737
000330 10 1c 5e 3d d2 df 19 3d 18 e5 ae bc e3 da 47 3d
       0.05422598 0.037566967 -0.021349475 0.04879273
000340 5d 68 eb bd d1 e8 c3 3d 58 de 0a 3d 94 e9 04 3b
       -0.11494515 0.095658906 0.03390345 0.0020280825
000350 2a 9c 60 bd b1 a3 a4 3d 63 12 3d 3d 26 ab cd bc
       -0.05483643 0.08039034 0.046160113 -0.025106024
000360 48 dd 18 be 6e 14 d5 3d 5c fb 80 bd 86 c0 09 bd
       -0.14928162 0.10404287 -0.06297943 -0.03363087
000370 ec 73 5a bb 71 e9 23 3d 97 1d 0c 3d 0f e2 e6 3d
       -0.0033333255 0.04001755 0.034207907 0.11273586
000380 69 76 35 3d 96 a5 15 3d 72 97 24 3d fa 37 83 3d
       0.044302378 0.03653487 0.040183492 0.06407161
000390 ee a2 e6 3d 55 fd 6d bd 5e 15 92 3d 64 59 3e 3d
       0.11261545 -0.058102924 0.07132982 0.04647197
0003a0 23 a3 ef 3d 53 3f ab 3c e8 02 d2 3d d2 b5 e9 3d
       0.11701038 0.020904219 0.102544606 0.114116326
0003b0 80 41 64 3d 72 71 d9 3d b9 a0 9b 3c 5a 60 76 3d
       0.05572653 0.10617341 0.018997537 0.06015048
0003c0 61 80 01 bd 8d 51 13 3e 46 74 23 be 13 df f5 3c
       -0.031616572 0.14386578 -0.15962324 0.030013597
0003d0 0d 5c c1 3d 3a 46 0a 3e a6 ec ab bc 25 7a c4 bd
       0.094413854 0.13503352 -0.020986866 -0.0959361
0003e0 4e 6a 26 bd 08 6f 63 bc f9 d0 c0 bd 6c 18 1f 3e
       -0.040628724 -0.013881452 -0.09414858 0.1553666
0003f0 3f ff 00 bc 7d 9a be 3d 60 19 e1 3d 5b 4c 8b bd
       -0.007873355 0.0930681 0.10991168 -0.06801673

weight f4 [385, 256]
000000 70 20 d6 bb e6 7a 95 bc cf 33 9e bb 6f e8 20 bc
       -0.0065346286 -0.01824708 -0.0048279534 -0.0098210415
000010 16 38 34 bb 8a 5b a1 bb 4f 3a 3b bc 82 e6 aa 3b
       -0.002749925 -0.0049242424 -0.011427476 0.005215467
000020 18 68 31 bd ea f9 8a 3b b3 01 01 3c d4 ac 2c 3c
       -0.043312162 0.004241218 0.00787394 0.010539252
000030 a1 dc 0e 3c f9 d9 eb bb 03 68 33 3c 71 16 e8 3c
       0.008719594 -0.007197615 0.010950091 0.028331013
000040 b4 0f 55 bc 67 89 af bc e1 11 12 bd 7c 1a e2 bc
       -0.013004232 -0.021427823 -0.035661582 -0.02760052
000050 dd 53 d4 3b 33 f2 51 3c d7 f2 81 3c 8d 0d e7 bb
       0.006479724 0.012814092 0.015862865 -0.007051176
000060 ab d5 7a bc e3 a2 3c 3c a5 1c 56 3c 0a f9 48 3c
       -0.0153097315 0.011513445 0.013068353 0.012266407
000070 b1 7d 4b bc c6 ba d2 bc ce 46 a3 3c d1 cb 2b bc
       -0.012420104 -0.025723826 0.019931223 -0.010485605
000080 78 61 4f 3c 73 69 84 3c 0c 48 c6 b9 83 f7 91 3c
       0.012657516 0.016163563 -0.00037819182 0.017818218
000090 2c 13 60 bc dd 40 f3 3c 75 2d 91 3c b9 2a 14 3b
       -0.013676446 0.029694015 0.01772187 0.0022608472
0000a0 7f 87 58 bc 6b 59 8f 3a 4f d8 0a bc c5 3d 4b bc
       -0.013215899 0.0010936683 -0.008474424 -0.012404864
0000b0 5e 59 ed 3c a7 3a f7 bb ed 64 85 bc c9 be 6d bc
       0.028973278 -0.0075448337 -0.016283477 -0.014510819
0000c0 22 c1 19 3a 40 ac e3 3c fa 53 0a bd c2 8f 9e bb
       0.0005865266 0.027792096 -0.033771493 -0.0048389146
0000d0 17 15 e7 3c 37 ba cb 3b da 6f 30 bb 15 be ab bc
       0.028208299 0.006217267 -0.0026922137 -0.020964662
0000e0 d0 a0 87 3b 5d 3e d3 3b e9 15 21 3c b6 a4 8d bb
       0.0041390434 0.0064466433 0.009831884 -0.0043226136
0000f0 90 a3 ef bb ee 6f f6 3b 80 19 15 bb aa 52 82 bc
       -0.0073131993 0.0075206673 -0.0022750795 -0.015908558
000100 24 3d 2a 3c 0e 2b b6 bb 0b db 14 bc 65 42 00 3c
       0.010390554 -0.0055593317 -0.009085427 0.00782833
000110 8d 65 4a 3c ac 79 ac bb 3a 90 94 3c be 9f a7 3c
       0.012353313 -0.005263528 0.018135179 0.020461913
000120 e7 cc 7e bc 29 51 09 bc 0f 4b 1c 3c 98 dc 12 3c
       -0.015551782 -0.0083811665 0.00953938 0.008963726
000130 e1 8d c1 3c 94 e7 03 3a 92 fa 0d 3c c4 92 89 ba
       0.023627223 0.0005031761 0.008665698 -0.001049601
000140 53 9c 22 bb dd 2a 07 bc 54 3b 39 3c 5a 24 3f bc
       -0.0024812415 -0.0082499655 0.011305649 -0.011666382
000150 ee a5 82 bc 80 61 5d bc 3c 16 2b 3b 0a 61 17 bc
       -0.015948262 -0.013512015 0.0026105782 -0.0092394445
000160 96 36 fe 3a ec d8 27 bc 33 cf 91 3c 6b 59 0e bc
       0.001939493 -0.010244589 0.017798996 -0.008688311
000170 06 a0 64 bc 54 7f 4a 3c 99 d5 28 3b 3d c7 b5 ba
       -0.013954168 0.012359459 0.002576208 -0.0013868582
000180 a9 48 a0 3c 9d 17 5f 3c 08 9b ac 3a 60 d2 e3 bb
       0.019565897 0.01361647 0.0013168762 -0.006952569
000190 69 81 24 3c db bc 18 3b 5c f7 0e b7 58 74 80 b9
       0.010040619 0.0023305926 -8.521452e-06 -0.00024500745
0001a0 41 1b 92 3b 85 70 ac bc 81 5b d2 bc 9f 1f 64 3c
       0.0044588153 -0.021049747 -0.025678398 0.013923555
0001b0 ba 6f e6 b8 97 55 f1 bb a0 4f 2a 3b ef d8 f2 bb
       -0.00010988065 -0.0073649394 0.0025987402 -0.0074111144
0001c0 73 87 e0 bc cf a2 76 3b 3c 6c 83 3c c4 0f 75 bc
       -0.027408337 0.0037633663 0.016042821 -0.014957372
0001d0 45 31 c4 39 51 1f 44 3c 9a 01 31 bb cc 42 06 bc
       0.00037420742 0.011970357 -0.0027009011 -0.008194637
0001e0 19 5d 48 3b 93 0e 54 bc d7 67 0d bc 9b 3b 96 bc
       0.0030573069 -0.012942928 -0.008630714 -0.018338969
0001f0 62 a1 c7 3c 88 21 92 bc b6 8d b7 3b ce 1f dc 3c
       0.024368946 -0.017838255 0.00560161 0.026870634
000200 7a 41 cf 3c a7 f9 08 bd fb 9c 52 bc 98 4f da 3c
       0.025299776 -0.033441212 -0.01285481 0.026649281
000210 fb 8e 7e bb 2c a4 11 3c b3 56 4f 3c 4f 0a 68 3c
       -0.0038842547 0.008889239 0.012654948 0.014162614
000220 02 f5 cd ba d5 72 08 bc 8e cc e3 bc 2b d1 aa 3c
       -0.0015713277 -0.008328159 -0.0278075 0.020851692
000230 e3 52 7d 3a 8b 6b 21 3b 6f ab b0 bb cd 40 dc 3c
       0.0009663535 0.002463075 -0.00539153 0.026886368
000240 e4 5c e4 3b 7d 78 a6 bc 68 d4 d3 3b 77 c7 ea bb
       0.0069690812 -0.020321125 0.00646453 -0.0071648913
000250 25 d7 3c bc e4 29 c4 bb dd e1 50 3c 04 04 2b bc
       -0.011525904 -0.005986439 0.0127491625 -0.010437969
000260 c5 4e a3 3b a5 e8 7f bb 40 2e e1 bb 77 c4 18 bb
       0.0049837553 -0.003904858 -0.0068719685 -0.0023310462
000270 2b 9f da ba 01 9f 4f 3c 22 1f 96 3c d1 dc 91 3b
       -0.0016679516 0.012672187 0.018325392 0.004451372
000280 59 0f 9e 3c 03 33 bd 3c 20 7c 58 bb 74 b9 98 3b
       0.019294428 0.023095613 -0.0033032969 0.0046607796
000290 3d 53 38 3c 3d da ce 3b 53 13 af bc e4 14 6a 3c
       0.011250314 0.006312637 -0.02137152 0.014287207
0002a0 b2 84 94 3c a6 51 39 3c 5a 78 44 3c e5 62 98 3c
       0.01812968 0.01131097 0.011991585 0.018601844
0002b0 e3 4e a0 bc 03 72 44 3c 15 8a d8 3a 43 43 28 bc
       -0.019568866 0.011990073 0.0016520644 -0.010269943
0002c0 df 5f ae bc 21 62 71 3c 20 db 6a bc 5e b7 40 3c
       -0.02128595 0.014732868 -0.01433447 0.011762468
0002d0 b4 36 bb bb 5b aa 8a bc a7 02 c6 3c 57 c5 b8 3b
       -0.005713308 -0.016926935 0.024171187 0.005638759
0002e0 34 26 87 ba 8a 85 0b bc 53 18 15 3c da 9f f2 3a
       -0.0010311068 -0.008515725 0.009100038 0.0018510774
0002f0 50 67 ce 3b 96 5e 72 3c 8d b1 c4 3c ad 33 c7 3c
       0.006298937 0.014793059 0.024010444 0.024316633
000300 32 57 69 3b fc 99 74 3c 8f a6 81 3c 10 dc 85 3b
       0.003560495 0.014929291 0.015826492 0.0040850714
000310 01 a4 15 bc c4 89 f9 3b ed b5 6f 3c a9 53 96 3c
       -0.00913334 0.0076153 0.014630777 0.01835044
000320 cc 66 f7 3a 98 51 c3 3b dc f9 18 3d 19 53 80 3c
       0.001887524 0.0059606545 0.03734766 0.015664624
000330 02 6b cf 3c 3e 95 86 3b 8e 1a 9f bb 2d 79 15 3b
       0.02531958 0.0041071465 -0.0048554605 0.0022807822
000340 5c 9a 02 bc d9 34 79 3c 94 57 48 39 dd c1 40 3a
       -0.007971372 0.015210354 0.00019106112 0.00073531066
000350 63 c1 fb bb 65 fd b0 3c f8 21 0a 3c 49 cb 87 bc
       -0.0076829656 0.021605203 0.00843095 -0.016576426
000360 40 98 17 bc aa 75 b0 3c 69 8e 13 bc fd 48 33 3b
       -0.009252608 0.021540482 -0.009006121 0.0027356737
000370 0e 4e 6a 3b 9c a0 97 3b 71 b2 bb bb f2 ad 9f 3c
       0.003575209 0.0046273004 -0.005728059 0.019492123
000380 ba 04 95 3b a3 57 7a 39 35 19 6f 3c 35 b5 c4 3c
       0.0045476826 0.00023874505 0.014593412 0.024012187
000390 80 69 21 3c a2 63 ae bc 50 50 88 3c f5 32 13 bc
       0.009851813 -0.021287743 0.016639858 -0.008984317
0003a0 e6 4f c0 3c d2 91 6d bb db 6e d5 3c 23 82 c6 3c
       0.023475599 -0.0036250246 0.026053837 0.024231976
0003b0 75 57 a3 3c 35 75 9e 3c 9a f6 8e 3c 16 08 56 3c
       0.019939164 0.019342998 0.017451573 0.013063451
0003c0 ee 89 35 bc b1 3e 92 3c ee 6b 2f 3b ef f3 68 3c
       -0.011080248 0.01785216 0.0026767212 0.014218315
0003d0 76 4a 9f 3c 0d 67 d3 3c 94 66 a9 bb c2 21 57 bc
       0.019444685 0.025805974 -0.005169699 -0.013130607
0003e0 bc b7 5c bc 2c 72 d2 3b 1c 29 ad bc 1f 50 e4 3c
       -0.01347154 0.0064223018 -0.021137767 0.027870236
0003f0 f8 2a 4d 3c 4c 06 9e 3c 00 6e 88 3c e5 53 b7 bc
       0.012522452 0.019290112 0.016654015 -0.022378871
